out_phase_progress_long_up_to_first_save/large_pool_size/ckpt_0.pt (torch, 176606 bytes, 29 tensors)

embed.embed.weight f4 [64, 64]
0	0xbe3c5304	-0.18391043
1	0x3f3ac9ad	0.7296398
2	0x3f1fc967	0.6241669
3	0x3dfaf382	0.12253477
4	0xbd00ca7b	-0.0314431
5	0xbf3db4f3	-0.7410423
6	0xbfadbf4c	-1.3574004
7	0xbcb43c76	-0.022001486
8	0xbf0b874d	-0.5450333
9	0x3e60970f	0.21932624
10	0xbfbf6cb7	-1.4955052
11	0x3eafc0c9	0.3432677
12	0xbe443e53	-0.191644
13	0xbf6729d2	-0.9029819
14	0x3f7f87ea	0.99816763
15	0x3d13b75b	0.036063533
16	0x3e79a14d	0.24377938
17	0x3d95ea43	0.073200725
18	0x3f665e4a	0.89987624
19	0xbf4e28e0	-0.8053112
20	0xbf07d01a	-0.5305191
21	0x3fca1afe	1.5789487
22	0x3fb9bca1	1.451069
23	0xbf8a2bbe	-1.0794599
24	0xc00c3f5d	-2.1913674
25	0x3fc58953	1.5432533
26	0xbf46e703	-0.77696246
27	0x400c6b7c	2.1940603
28	0x3f6cf9b8	0.9256854
29	0x3f2f59fd	0.68496686
30	0xbf1a5f5c	-0.60301757
31	0x3f1988e2	0.5997449
32	0x3f73082d	0.9493435
33	0xbf6bd2a2	-0.92118275
34	0x3ed9bed7	0.42528412
35	0xbf83e735	-1.0304934
36	0xbf98ce3b	-1.1937937
37	0x3f1be175	0.60890895
38	0xbf5aef2f	-0.85521215
39	0x3f1fe585	0.62459594
40	0xbfd7268f	-1.6808642
41	0xbf6c3fae	-0.9228467
42	0x3e6eade0	0.23308516
43	0x3f34ff1c	0.70701766
44	0x3fa6cf51	1.3032018
45	0x3f6572db	0.8962838
46	0xbef68d96	-0.48154896
47	0xbf40f901	-0.7537995
48	0xbf6d67f3	-0.9273674
49	0xbfd5beec	-1.669889
50	0xbd9dd70a	-0.07707031
51	0xbed0fb35	-0.40816656
52	0x3eed081a	0.46295244
53	0x3f910cca	1.1332028
54	0x3d4958db	0.049157005
55	0xbf638a5f	-0.8888301
56	0x3ecbb80b	0.3978885
57	0xbeee6377	-0.4656026
58	0xbf9a3f76	-1.2050617
59	0xbfc96c24	-1.5736127
60	0x3ee48306	0.44631213
61	0xbeb31d20	-0.34983158
62	0xbdbdce33	-0.09267845
63	0x3f55c6a6	0.8350624
64	0x3f1a54ec	0.6028583
65	0xbf9c9689	-1.223344
66	0xbfa0bbe4	-1.255734
67	0x3da47cee	0.08031641
68	0x4003e237	2.060682
69	0xbf9891dd	-1.1919514
70	0xbe9a600d	-0.30151406
71	0xbee42f59	-0.44567373
72	0x3e83e33c	0.25759304
73	0xbe90f7a7	-0.28313944
74	0x3e40b860	0.18820333
75	0x3eaadcdd	0.3337163
76	0x3f00af5f	0.50267595
77	0x3e97e687	0.29668066
78	0x3e1a6983	0.15079312
79	0x3f6412dc	0.8909128
80	0x3fb201ef	1.390684
81	0xbefe9391	-0.4972196
82	0x3fa20291	1.2657033
83	0x3e988f7f	0.2979698
84	0x3ea9f09c	0.33191383
85	0xbeecf839	-0.4628313
86	0x3fda0655	1.7033182
87	0x3eebfc59	0.46090963
88	0x3dd2ddd2	0.10296215
89	0x3f86ad3e	1.0521619
90	0xbfa74e79	-1.3070823
91	0x3ea98e46	0.3311636
92	0xc00467fc	-2.0688467
93	0x4001d656	2.028707
94	0x3e230a87	0.15921985
95	0xbf91ac5e	-1.1380727
96	0xbfa4b111	-1.2866536
97	0xbfae54de	-1.361965
98	0x3f323aad	0.6962078
99	0xbd5ef22a	-0.054430164
100	0x3f8085b9	1.0040809
101	0x3f51265f	0.81699175
102	0x3fa19031	1.2622129
103	0x3d7b0e05	0.061292667
104	0xbf8ec7c1	-1.115471
105	0xbdbb0287	-0.091313414
106	0x3f92c28f	1.1465625
107	0x3ebea41a	0.37234575
108	0xbf255377	-0.6458048
109	0xbd88ef8b	-0.06686314
110	0xbfb4b500	-1.4117737
111	0xbfbd7856	-1.4802349
112	0xbe9fae0a	-0.3118747
113	0xbdb87760	-0.09007144
114	0x3fa5d173	1.2954544
115	0xbd164f4c	-0.036696717
116	0xbf24dd10	-0.64399815
117	0x3d2622fe	0.040560715
118	0x3e7bc615	0.24587281
119	0xbf62aa8b	-0.8854148
120	0x3dd57187	0.10422044
121	0xbf530b39	-0.82439
122	0xbe36c27e	-0.1784763
123	0xbd984ee5	-0.07436923
124	0x3ee94853	0.45562991
125	0xc01f99a5	-2.4937527
126	0xbf860fa1	-1.047352
127	0x3eb75eaf	0.35814425
128	0x3f560453	0.8360035
129	0x3f7af9d4	0.9803746
130	0xbeb3bf9a	-0.35107118
131	0xbe4bbc21	-0.19895984
132	0xbe21eb21	-0.15812351
133	0x3f4ca134	0.79933476
134	0xbf21decf	-0.63230604
135	0xbfcece65	-1.6156737
136	0x3eace86e	0.3377108
137	0xbf871fbe	-1.0556562
138	0x3ecb6e81	0.39732745
139	0xbec8614a	-0.39136726
140	0xbf3077d8	-0.6893287
141	0x3f57ac39	0.84247166
142	0x3ea04e48	0.31309724
143	0x3ef262d3	0.47341022
144	0xbf2f2b40	-0.6842537
145	0xbf734f5c	-0.9504297
146	0xbfea6730	-1.831274
147	0xbf4bad4b	-0.795613
148	0x3e1db9bd	0.15402885
149	0x3fa13d73	1.2596878
150	0xbf86984c	-1.0515227
151	0xbf0f46a1	-0.55967146
152	0x3ecbeb7f	0.39828107
153	0x3f01a31e	0.5063952
154	0xbf2fba6e	-0.68643844
155	0x3e5608f2	0.2090185
156	0xbf8f114d	-1.1177155
157	0x3fd1e115	1.6396815
158	0x3f9bf709	1.2184764
159	0x3f135f0b	0.575669
160	0xbf7d7a20	-0.9901447
161	0x3efad6aa	0.489919
162	0x3eacc552	0.33744293
163	0x3fa700f1	1.3047162
164	0xbf93a1ea	-1.1533787
165	0xbfc8d99e	-1.5691411
166	0xbedde765	-0.43340603
167	0x4022e98f	2.5455053
168	0xbf17ade2	-0.592497
169	0xbf8824f8	-1.0636282
170	0x3ca87644	0.020564206
171	0x3dcd8cee	0.10036646
172	0xbd512e1a	-0.051069357
173	0xbf70c2ec	-0.9404743
174	0x3f5e0808	0.86731005
175	0xbe9c5222	-0.30531412
176	0xbe7ed4c2	-0.24885848
177	0xbfa428c0	-1.2824936
178	0x401044ac	2.2541914
179	0xbc823c7d	-0.015897984
180	0x3e38c6de	0.18044612
181	0xbf25fd3b	-0.64839524
182	0xbfde884f	-1.7385348
183	0xbef0e4f5	-0.4704968
184	0x3f44ee32	0.7692596
185	0x3c5ce030	0.013481185
186	0xbf170d6a	-0.59004843
187	0x3f6ec3fc	0.932678
188	0xc027543a	-2.6145158
189	0x3f1a91d0	0.6037874
190	0x3ec93a45	0.3930227
191	0x3e91b07c	0.2845496
192	0xbfb12dce	-1.3842103
193	0x3f9b81b8	1.2148962
194	0x3d264116	0.040589415
195	0xbe556eec	-0.20843095
196	0xbfd45027	-1.658696
197	0xbf04ab4b	-0.5182387
198	0x3fbe452f	1.4864863
199	0x3f027d3e	0.50972354
200	0xbfb08748	-1.3791285
201	0xbfa10668	-1.258008
202	0xbfebc5c4	-1.8419728
203	0xbeb5d69c	-0.35515296
204	0xc02bf9f2	-2.6871305
205	0x401b35f8	2.425169
206	0xbfaba57f	-1.340988
207	0x3f02a0d1	0.51026636
208	0x3eeecaa8	0.4663899
209	0xbe8b87c7	-0.27252027
210	0x3f68382e	0.90710723
211	0x3ea29e80	0.3176155
212	0x3f64315e	0.8913783
213	0xbf49567d	-0.78647596
214	0xbfc31ad1	-1.5242559
215	0x3f376982	0.7164537
216	0xc005375e	-2.0815043
217	0x3fc94af7	1.5726002
218	0x3e8d6f89	0.27624157
219	0x3f118582	0.5684434
220	0x3ec4851e	0.3838281
221	0xbeacbef5	-0.3373944
222	0xbee22d3a	-0.4417513
223	0x3f816422	1.0108683
224	0x3f65fd09	0.89839226
225	0x3f5c5603	0.86068743
226	0xbf40207c	-0.7504957
227	0xbf7e601c	-0.993654
228	0x3d48aeea	0.048994936
229	0xbf653b6b	-0.8954379
230	0x3effb6a0	0.4994402
231	0x3fab02ac	1.336019
232	0x3fea4a5f	1.8303946
233	0xbbee580b	-0.007273679
234	0xbf8333ed	-1.0250221
235	0x3f6143c7	0.87994045
236	0x3f7ca188	0.9868398
237	0x3fef3ff8	1.8691397
238	0x3f4a4757	0.79015106
239	0x3f50dee4	0.81590104
240	0x3f67bbf4	0.9052117
241	0xbf54c0a2	-0.83106434
242	0x3efee7e4	0.49786294
243	0x3cf42920	0.029804766
244	0xbfb7fb7d	-1.4373623
245	0x3fa5eb61	1.2962457
246	0x3ecd34bc	0.40079296
247	0xbf0472c7	-0.51737636
248	0x3eedc082	0.46435934
249	0x3fae0f72	1.3598464
250	0xc039caa6	-2.9029937
251	0xbe78aae0	-0.24283934
252	0x3da9ed3c	0.08297202
253	0xbf278e26	-0.65451276
254	0xbf63a527	-0.8892388
255	0xbdf5e276	-0.120060846

h.0.mha.W_q.weight f4 [64, 64]
0	0x3bce4a40	0.0062954724
1	0xbdff4ed2	-0.12466206
2	0x3c17b870	0.009260282
3	0x3db4506a	0.088044
4	0xbb73f000	-0.0037221909
5	0x3dd26a32	0.102741614
6	0x3d8b2f4c	0.067961305
7	0x3d392eb4	0.045210555
8	0x3d0c158c	0.034200236
9	0x38c84800	9.550154e-05
10	0xbcaedcf0	-0.021345586
11	0x3de61f18	0.112363994
12	0xbddb95d8	-0.1072194
13	0x3d0662f0	0.032809198
14	0xbd702f74	-0.058639005
15	0xbd4ae970	-0.04953903
16	0x3de26c3c	0.110558
17	0xbd43e5dc	-0.047826633
18	0x3d461094	0.048355654
19	0x3da28d7e	0.07937144
20	0xbc9b8ae0	-0.01898712
21	0x3ccece38	0.025244817
22	0x3dc7e98c	0.097613424
23	0x3d53948c	0.051655337
24	0x3cc69e08	0.024245277
25	0x3d05994c	0.0326169
26	0x3b876540	0.004131943
27	0xbdcc6532	-0.09980239
28	0x3dad29e0	0.08455253
29	0xbd8ed9ca	-0.06975134
30	0xbdc5f562	-0.09665944
31	0xbc924858	-0.017856762
32	0xbd2e6bb0	-0.042583168
33	0x3dd28b08	0.10280424
34	0xbad15080	-0.0015969425
35	0xbd726be8	-0.05918494
36	0xbddc9f06	-0.10772519
37	0x3c1e7bf0	0.009673104
38	0x3d87c824	0.06629971
39	0x3d7c3608	0.061574966
40	0xbd956eea	-0.07296546
41	0x3d7a1ddc	0.061063632
42	0x3d7b5974	0.061364606
43	0x3d4162e4	0.04721345
44	0xbdaa1568	-0.08304864
45	0xbd568a6c	-0.052378103
46	0xbd951fb8	-0.072814405
47	0xbd8ff2f6	-0.07028763
48	0x3d074880	0.033028126
49	0x3d02d2d8	0.031939358
50	0x3da20526	0.07911138
51	0x3cbdf0c8	0.023186103
52	0xbd294804	-0.041328445
53	0x3db4d80a	0.08830269
54	0x3d1efd14	0.038815573
55	0xbdad5fce	-0.08465539
56	0x3db72e78	0.0894441
57	0xbdc2dfa8	-0.09515315
58	0xbd829764	-0.06376532
59	0xbd144ef0	-0.036208093
60	0x3b453240	0.0030089766
61	0xbd9c56dc	-0.076337546
62	0xbcd54f48	-0.02603878
63	0x3d356d6c	0.044293806
64	0x3da616ca	0.081098154
65	0xbdb46b48	-0.08809525
66	0xbdf747f0	-0.12074268
67	0xbc59a600	-0.013284206
68	0xbd25e468	-0.04050103
69	0x3d614a3c	0.055002436
70	0xbcebe9f8	-0.028798088
71	0xbdbbdf84	-0.091734916
72	0x3dfb57bc	0.122725934
73	0x3dfa1f96	0.12213056
74	0xbd8f1a58	-0.069874465
75	0xbd29d128	-0.041459233
76	0xbdb5a96c	-0.08870205
77	0x3d3936a8	0.04521814
78	0xbdd11896	-0.102097675
79	0xbd81bbb2	-0.06334628
80	0xbd5126d4	-0.05106242
81	0xbd89798a	-0.06712635
82	0x3d9c2cd8	0.07625741
83	0xbdab9ad8	-0.083791435
84	0x3db4159a	0.08793183
85	0xbdbc225a	-0.091862395
86	0x3d8b0180	0.067873955
87	0x3d0cc1cc	0.034364507
88	0xbc25ef00	-0.010127783
89	0xbd93a798	-0.072097
90	0x3c7469c0	0.014917791
91	0x3dff0ea2	0.12453963
92	0xbce50448	-0.027956143
93	0x3dc80f90	0.09768593
94	0x3d57bc08	0.052669555
95	0xbd95e6b8	-0.07319397
96	0x3d331914	0.04372509
97	0x3dc2b256	0.09506671
98	0x3dfcf56a	0.123514965
99	0xbbeae120	-0.0071679503
100	0xbd3d2c7c	-0.046185
101	0x3d875600	0.066082
102	0xbd4280c8	-0.047486097
103	0x3cdcf948	0.026974335
104	0x3aaa0300	0.0012970865
105	0xbdc39342	-0.095495716
106	0x3d26cb34	0.040721133
107	0x3ddabf64	0.10681036
108	0xbd1217f0	-0.03566736
109	0x3dca395e	0.09874223
110	0xbd6ffe04	-0.058591858
111	0xbd29bcdc	-0.041439876
112	0x3d8f6b98	0.07002944
113	0x3d229e0c	0.039701506
114	0x3d97df82	0.074156776
115	0x3dbac9b2	0.091205016
116	0x3ddce8d2	0.107865945
117	0x3b1a4700	0.0023540854
118	0xbdeff0e4	-0.11715868
119	0x3ddfe5e8	0.10932523
120	0xbbc7fba0	-0.006102994
121	0xbdb01538	-0.08597797
122	0xbd2a325c	-0.041551933
123	0xbdaf1cae	-0.08550392
124	0xbb205080	-0.0024462044
125	0x3df02496	0.11725728
126	0xbdb45820	-0.08805871
127	0xbdd650c8	-0.104646266
128	0xbdec9da8	-0.11553508
129	0x3dc6bc68	0.097039044
130	0xbd7684d4	-0.06018527
131	0xbcc30c90	-0.023809701
132	0xbdd82c0c	-0.10555276
133	0x3b9fdb00	0.0048784018
134	0xbd9b4b0e	-0.07582675
135	0x3c37aa80	0.011210084
136	0x3d8a7986	0.0676146
137	0xbd56045c	-0.05225025
138	0xbdc6b51e	-0.09702514
139	0xbdd42314	-0.10358253
140	0x3d27e760	0.04099214
141	0x3cf15eb8	0.02946411
142	0xbd83dc5e	-0.06438516
143	0xbdfb0cf8	-0.12258333
144	0x3d51631c	0.05111991
145	0x3ce883a8	0.028383091
146	0x3d9586d0	0.07301104
147	0x3bcc2a20	0.0062306076
148	0xbdcde2e0	-0.100530386
149	0xbcfd9ff8	-0.030960068
150	0xbd93e244	-0.07220891
151	0x3d84be6e	0.06481634
152	0x3db27aec	0.08714852
153	0x3d0c8a10	0.034311354
154	0xbde712f8	-0.11282915
155	0xbd08626c	-0.033296987
156	0x3bf33920	0.0074225813
157	0xbd10af2c	-0.035323307
158	0x3dcc9788	0.0998984
159	0x3df08542	0.11744167
160	0xbc83dbb0	-0.016095966
161	0x3c8801c0	0.016602397
162	0xbbd1f8e0	-0.006407842
163	0x3c22f2b0	0.0099455565
164	0x3c55ab40	0.013041317
165	0x3ce084c8	0.027407065
166	0x3bb4fb40	0.0055231154
167	0xbdff0e94	-0.124539524
168	0xbd90ad42	-0.07064296
169	0x3de10d1c	0.109888285
170	0x3c95b8d8	0.018276617
171	0x3dd24084	0.10266212
172	0x3c1039b0	0.008802816
173	0xbdc944d0	-0.09827578
174	0x3ddd4080	0.10803318
175	0xbdb6138e	-0.088904485
176	0xbd44dd78	-0.04806277
177	0x3de536c0	0.11192083
178	0xbd39d9ec	-0.045373842
179	0xbc9a9da0	-0.01887399
180	0x3d71b360	0.059008956
181	0xbc027d70	-0.007964477
182	0xbd0ec5a0	-0.03485644
183	0xbd9a5b3c	-0.07536933
184	0x3d32d4f0	0.043660104
185	0xbd2bbb48	-0.041926652
186	0x3d349a28	0.044092327
187	0xbdd54fd4	-0.10415617
188	0x3db0dc7a	0.086358026
189	0x3ca891c0	0.020577312
190	0x3d12f4dc	0.035878047
191	0x3d90ff12	0.07079901
192	0x3df413c8	0.119178355
193	0x3d627f90	0.055297434
194	0x3d14003c	0.036133036
195	0x3d0eb334	0.03483887
196	0x3def0110	0.116701245
197	0x3d96b2fc	0.07358357
198	0xbddbf7f2	-0.10740651
199	0xbcda5e00	-0.02665615
200	0xbd989fd0	-0.07452357
201	0xbd90d090	-0.0707103
202	0xbd1cd24c	-0.038286492
203	0x3d0828ec	0.03324215
204	0xbdd4ae7a	-0.10384841
205	0x3d82eba8	0.06392604
206	0x3da2f23e	0.0795636
207	0x3cd186e8	0.025577024
208	0xbdae1ea4	-0.08501938
209	0xbc423850	-0.011854246
210	0x3d667f78	0.056273907
211	0x3d926472	0.07148065
212	0x3c35f390	0.011105433
213	0x3d963662	0.073345914
214	0x3da091bc	0.078402966
215	0x3d129508	0.03578666
216	0xbd9a1d04	-0.075250655
217	0xbd5e1b60	-0.054225326
218	0x3dcdce5e	0.10049127
219	0xbc9cc3f8	-0.019136414
220	0xbdd238d8	-0.10264748
221	0x3d15cc1c	0.036571607
222	0x3dd76232	0.10516776
223	0xbde8c15a	-0.11365004
224	0x3dc63d48	0.09679657
225	0xbd1347b8	-0.03595707
226	0xbdc562cc	-0.09637985
227	0x3df7d2b6	0.12100737
228	0x3dd46722	0.103712335
229	0x3deed226	0.116611764
230	0x3df60fc2	0.12014724
231	0x3dd41890	0.103562474
232	0x3d8fcc4e	0.0702139
233	0x3d3dca98	0.046335787
234	0x3dca1a40	0.09868288
235	0xbcf19fa0	-0.02949506
236	0xbdf77bce	-0.12084161
237	0x3d9dc4aa	0.07703526
238	0xbca7e6a0	-0.020495713
239	0xbdb3c554	-0.08777872
240	0xbda60a70	-0.081074595
241	0x3de89d9a	0.11358185
242	0xbd9f543c	-0.07779738
243	0xbd158f28	-0.036513478
244	0xbd2223d4	-0.03958495
245	0xbd071954	-0.03298314
246	0x3ddc4058	0.1075446
247	0x3d628878	0.055305928
248	0x3be278e0	0.006911382
249	0x3d87d4fa	0.06632419
250	0x3d8e977a	0.069624856
251	0x3b4cadc0	0.0031231493
252	0x3db6a7a6	0.08918695
253	0xbd933218	-0.07187289
254	0xbd8194d0	-0.06327212
255	0x3dbf8f26	0.09353475

h.0.mha.W_q.bias f4 [64]
0	0x3dcc9f0c	0.09991273
1	0x3dcaedd0	0.099086404
2	0x3db62d22	0.08895327
3	0x3cccade0	0.024985254
4	0xbd2b2c40	-0.041790247
5	0x3dd59db2	0.104304686
6	0x3c4de1b0	0.012566015
7	0x3d831bc8	0.06401783
8	0xbda591e8	-0.0808447
9	0xbd8a5152	-0.06753792
10	0xbdac431a	-0.08411236
11	0x3d0f9514	0.03505428
12	0x3dcd11f8	0.10013193
13	0xbcafe4d8	-0.021471426
14	0xbc68aa20	-0.014200717
15	0xbd4e7b74	-0.050410703
16	0x3de6534e	0.11246358
17	0x3d4c6d18	0.049908727
18	0x3ddcac0e	0.10775004
19	0xbd49bec0	-0.04925418
20	0xbcbd3248	-0.023095265
21	0x3def9db6	0.11700003
22	0xbaa77a80	-0.0012777597
23	0x3d50ead0	0.051005185
24	0x3cf75888	0.030193582
25	0x3da66d3e	0.08126305
26	0x3cd28580	0.025698423
27	0xbd9a4cae	-0.07534157
28	0xbd22e19c	-0.03976594
29	0xbdd630c0	-0.10458517
30	0x3dd43ae8	0.10362798
31	0x3deef056	0.11666934
32	0xbdbd11a4	-0.0923188
33	0xbd352808	-0.04422763
34	0xbccbebd8	-0.024892733
35	0x3c730960	0.014833778
36	0x3c92a790	0.017902166
37	0x3cbca640	0.023028493
38	0xbd9a00b0	-0.075196624
39	0xbcaf56b8	-0.021403655
40	0x3df8007e	0.12109469
41	0xbd4654a8	-0.04842058
42	0x3dbda900	0.0926075
43	0x3cafa078	0.021438822
44	0x3d9f2594	0.07770839
45	0x3dc4de0e	0.09612666
46	0x3d81c440	0.0633626
47	0x3d9519dc	0.07280323
48	0xbce03fa8	-0.027374104
49	0x3d83ba7a	0.06432052
50	0x3de844be	0.113412365
51	0x3d7ec00c	0.06219487
52	0xbd6c73a0	-0.057727456
53	0xbdb7b7fc	-0.08970639
54	0xbd15fb7c	-0.036616787
55	0xbd58e070	-0.052948415
56	0x3dc6a3e0	0.096992254
57	0x3d6dad80	0.05802679
58	0xbd620f18	-0.055190176
59	0x3cef2db0	0.02919659
60	0x3d4f44a8	0.050602585
61	0xbd30c240	-0.043154
62	0x3dae8e14	0.08523193
63	0xbdd74480	-0.10511112

h.0.mha.W_k.weight f4 [64, 64]
0	0x3cbc41e0	0.02298063
1	0xbdb9be86	-0.090695426
2	0xbd29a6f8	-0.041419
3	0xbdb4c7be	-0.0882716
4	0xbd7f21f0	-0.062288225
5	0x3cc9ecc0	0.024649024
6	0x3df06052	0.11737122
7	0x3d89bc62	0.06725384
8	0x3dd5cad2	0.104390755
9	0xbcbb4358	-0.02285926
10	0xbcb48750	-0.022037178
11	0x3ddae636	0.106884405
12	0xbd80e54c	-0.06293735
13	0x3ce4c810	0.027927428
14	0xbc0068c0	-0.007837474
15	0xbd630fd8	-0.05543503
16	0xbd9d400a	-0.0767823
17	0x3b9f9580	0.0048701167
18	0x3d699e78	0.057035893
19	0x3d959668	0.07304078
20	0xbdf097ba	-0.117476895
21	0x3cc72ba8	0.02431281
22	0xbc8e9290	-0.01740387
23	0xbdb20506	-0.086923644
24	0x3dd73ea2	0.10509993
25	0xbdfbb1f2	-0.122898
26	0x3da84c9e	0.082177386
27	0x3cf4ce08	0.0298834
28	0xba8c5580	-0.0010706633
29	0x3d47a600	0.048742294
30	0x3da769ac	0.08174452
31	0x3db0e7c2	0.08637954
32	0x3ce91d90	0.02845648
33	0x3dd1967a	0.10233779
34	0x3d852b24	0.06502369
35	0xbd8885b4	-0.06666127
36	0x3cb5dde0	0.022200525
37	0xbda453b2	-0.08023776
38	0x3d7a40b8	0.061096877
39	0x3dac8c76	0.08425228
40	0x3d7aee00	0.06126213
41	0xbbfba420	-0.0076794773
42	0xbd8f042e	-0.06983219
43	0xbc568940	-0.013094246
44	0xbd6f9aa8	-0.0584971
45	0xbdcb8426	-0.09937315
46	0x3dc3fcf4	0.09569731
47	0x3d94b8d2	0.07261814
48	0x3dc487e4	0.095962316
49	0x3c552a90	0.013010636
50	0xbd314164	-0.043275252
51	0xbdfa7b5c	-0.1223056
52	0x3d2994e4	0.04140176
53	0x3c479e00	0.012183666
54	0xbdb1da9e	-0.08684276
55	0xbd3c43ec	-0.045963213
56	0x3d83f48a	0.064431265
57	0xbdab6f92	-0.0837089
58	0x3cc72670	0.02431032
59	0xbc472240	-0.012154162
60	0xbd409258	-0.047014564
61	0xbc8399c8	-0.01606454
62	0xbd619c84	-0.055080906
63	0x3dcd3160	0.10019183
64	0xbd7e9144	-0.062150255
65	0x3c40ff90	0.011779681
66	0xbd80f03e	-0.062958226
67	0xbdd49908	-0.10380751
68	0x3cff9e50	0.031203419
69	0x3c19b7b0	0.009382173
70	0x3d8ac6e8	0.067762196
71	0x3848e000	4.7892332e-05
72	0x3dad987a	0.08476348
73	0xbd179260	-0.03700483
74	0x3d988384	0.074469596
75	0xbcce08f8	-0.025150761
76	0xbdfa0104	-0.12207225
77	0x3d3f1fec	0.046661302
78	0xbd3b1510	-0.045674384
79	0xbde3c096	-0.11120717
80	0x3d51966c	0.051168844
81	0x3c33dd50	0.010978058
82	0xbd261598	-0.040547937
83	0x3d89f1e0	0.06735587
84	0xbd6d04dc	-0.057865962
85	0x3c1082e0	0.0088202655
86	0xbc3d7cd0	-0.011565402
87	0x3d3c63e0	0.045993686
88	0x3d96ccfc	0.073633164
89	0x3dc7dd82	0.09759046
90	0x3d1b2e94	0.037886217
91	0xbde92434	-0.11383858
92	0x3db9ae9c	0.09066507
93	0xbc9e5000	-0.019325256
94	0xbca64068	-0.020294383
95	0x3d362c78	0.044476002
96	0x3d37d8f8	0.044884652
97	0x3c3e0370	0.011597499
98	0x3daa7cf8	0.08324617
99	0x3d8c37f6	0.06846611
100	0x3dbddb0a	0.09270294
101	0xbdcc0002	-0.09960939
102	0x3d4d0820	0.050056577
103	0xbd915e8e	-0.07098113
104	0xbd2746e8	-0.040839106
105	0xbd7a8564	-0.061162367
106	0xbd540d30	-0.05177039
107	0xbc933df0	-0.01797387
108	0x3dfe2e74	0.12411204
109	0xbbd1ac00	-0.006398678
110	0xbca80200	-0.020508766
111	0xbdecb14a	-0.11557253
112	0xbde8c620	-0.11365914
113	0xbde3be52	-0.11120285
114	0x3c4f0e40	0.012637675
115	0x3d68d7f0	0.05684656
116	0xbd9ebbaa	-0.07750638
117	0xbdd6a3c2	-0.10480453
118	0xbddef90a	-0.10887344
119	0xbddbc248	-0.107304156
120	0x3d44e504	0.04806997
121	0xbdb90470	-0.090340495
122	0xbd836c5a	-0.06417151
123	0xbcda3a30	-0.026639074
124	0xbdfbabec	-0.12288651
125	0xbd57b7a8	-0.052665383
126	0xbd810a4e	-0.063007936
127	0x3d471640	0.048605204
128	0xbde67ce0	-0.11254287
129	0xbd910500	-0.07081032
130	0xbcdba060	-0.026809871
131	0x3dfcc63c	0.12342498
132	0x3d9d701a	0.07687397
133	0x3c485d90	0.012229338
134	0x3de97978	0.114001215
135	0x3da34712	0.0797254
136	0xbccfee20	-0.025382102
137	0xbcf99fa0	-0.030471623
138	0x3dac5ffe	0.084167466
139	0xba0f8b00	-0.00054757297
140	0xbdc93fe8	-0.09826642
141	0xbbde9ac0	-0.00679335
142	0xbcd034a8	-0.025415733
143	0xbb97d040	-0.0046329796
144	0xbd4e7f18	-0.050414175
145	0x3b93c9a0	0.0045101196
146	0x3cfad568	0.030619338
147	0xbd3cd8cc	-0.04610519
148	0xbd0a2964	-0.03373088
149	0x39d3a200	0.00040365756
150	0xbdeecf62	-0.11660649
151	0x3da08134	0.078371435
152	0xbdd22998	-0.1026184
153	0x3dba55c8	0.09098393
154	0x3daf9d1c	0.08574888
155	0x3d458eac	0.048231766
156	0xbd751b90	-0.05984074
157	0xbd878eea	-0.066190556
158	0x3dc6f714	0.09715095
159	0x3da29028	0.07937652
160	0xbcc5c320	-0.024140894
161	0x3d994d26	0.07485418
162	0x3d5a0bd8	0.05323395
163	0xbce62178	-0.028092131
164	0xbd840378	-0.06445974
165	0x3d60628c	0.05478148
166	0xbd9f9ca0	-0.07793546
167	0x3d52c9dc	0.05146204
168	0x3d7a6220	0.061128736
169	0xbdd66988	-0.10469347
170	0x3dc0ce50	0.09414351
171	0xbd36e458	-0.04465136
172	0x3c421910	0.011846796
173	0x3d482638	0.048864573
174	0x3c297a30	0.010344073
175	0x3d711308	0.05885604
176	0xbd1d720c	-0.03843884
177	0x3d3f125c	0.04664837
178	0x3cb9fed0	0.022704512
179	0xbd050030	-0.032470882
180	0xbde1c9ba	-0.110248044
181	0xbdda1136	-0.10647814
182	0xbdf0da4c	-0.11760387
183	0xbd388cf0	-0.045056283
184	0x3d99a08c	0.07501325
185	0xbd7fc410	-0.06244284
186	0xbcaf7b90	-0.021421224
187	0x3ddd857c	0.10816476
188	0x3d2ca8ac	0.042153046
189	0x3dc4c85a	0.096085265
190	0xbd64fff4	-0.05590816
191	0x3da14cf0	0.07876003
192	0xbd831942	-0.06401302
193	0xbcaf1760	-0.02137345
194	0x3d88b6e2	0.06675507
195	0x3d95e640	0.07319307
196	0x3da601ce	0.08105813
197	0xbcb5d598	-0.022196576
198	0xbdb1fc6a	-0.08690722
199	0xbc4554b0	-0.012044117
200	0x3d4b9a44	0.049707666
201	0xbd55bc68	-0.05218163
202	0x3ca63990	0.02029112
203	0xbdb0d344	-0.08634046
204	0xbdfe209e	-0.12408565
205	0xbb5f1c40	-0.0034043938
206	0x3cdfc0a0	0.02731353
207	0x3d110108	0.035401374
208	0xbd5d95ac	-0.054097816
209	0x3d7bcdf4	0.06147571
210	0x3d27bca4	0.040951386
211	0x3dd324e6	0.10309772
212	0xbb6d4a80	-0.0036207736
213	0x3d3b7f24	0.045775548
214	0xbb8d8ba0	-0.004319623
215	0x3d2ef26c	0.04271166
216	0x3d9cee46	0.076626346
217	0xbde877b0	-0.113509536
218	0x3d8350d8	0.06411904
219	0xbdb5e690	-0.08881867
220	0x3cd14620	0.025546134
221	0x3cc60440	0.024171948
222	0xbd80e3a8	-0.06293422
223	0x3d798f2c	0.060927555
224	0xbdad598a	-0.08464344
225	0xbd61a62c	-0.055090114
226	0x3cfe1fb0	0.03102097
227	0x3dbcc4e8	0.092172444
228	0x3d298730	0.04138869
229	0xbc4ee280	-0.012627244
230	0x3db74dbc	0.089503735
231	0x3db425e6	0.08796291
232	0x3d1b781c	0.037956342
233	0x3de9c908	0.11415297
234	0xbd4d66a4	-0.050146714
235	0x3de931a6	0.11386423
236	0x3d5cd670	0.05391544
237	0xbd5644c4	-0.052311674
238	0x3df139e8	0.11778623
239	0xbd61cbc0	-0.05512595
240	0xbd94dd6e	-0.07268797
241	0x3d80a56c	0.06281552
242	0x3d31e234	0.043428615
243	0xbdb129aa	-0.08650525
244	0xbc96b710	-0.018397838
245	0x3d932f90	0.07186806
246	0xbd201590	-0.039083064
247	0xbde64bcc	-0.11244926
248	0x3df1f4c0	0.118142605
249	0x390cb800	0.00013419986
250	0x3d52ebbc	0.051494345
251	0xbd221798	-0.039573282
252	0xbd911e90	-0.070859075
253	0x3c3cd0d0	0.011524394
254	0xbdd278d0	-0.102769494
255	0x3d9c003a	0.07617231

h.0.mha.W_k.bias f4 [64]
0	0xbd9c3b76	-0.07628529
1	0x3deadf5e	0.11468385
2	0xbd464f14	-0.04841526
3	0x3de677e4	0.11253336
4	0x3da83950	0.082140565
5	0x3cbf1ac8	0.0233282
6	0xbc1afb10	-0.009459272
7	0xbc52eee0	-0.012874335
8	0xbda096fa	-0.078412965
9	0xbd3c6be8	-0.046001345
10	0x3dee17d2	0.11625637
11	0xbdf904aa	-0.12159093
12	0x3d21baa4	0.039484635
13	0xbd6f9d6c	-0.05849974
14	0xbdcb9fa0	-0.099425554
15	0xbd9c0526	-0.076181695
16	0x3d18eba4	0.0373341
17	0xbda93f28	-0.08263999
18	0x3d8ccd2c	0.06875071
19	0x3da80ace	0.08205186
20	0x3dcaceb4	0.09902707
21	0xbcada480	-0.021196604
22	0x3d563a2c	0.05230157
23	0x3de33740	0.110945225
24	0x3dbe5c80	0.09294987
25	0x3dd96dbc	0.10616633
26	0x3df50938	0.11964649
27	0xbd0bd4fc	-0.034138665
28	0xbdd45aaa	-0.10368855
29	0x3de1501a	0.11001606
30	0xbd345ea0	-0.044035554
31	0xbda0c688	-0.07850367
32	0xbcc3a6a0	-0.023883164
33	0xbd2d3880	-0.04229021
34	0xbdc80f36	-0.09768526
35	0x3d6978e0	0.05700004
36	0x3de86106	0.11346631
37	0xbdda9650	-0.10673201
38	0xbd78aab8	-0.060709685
39	0xbd26e99c	-0.04075013
40	0x3cd25a98	0.025677964
41	0xbd4c114c	-0.049821183
42	0x3cfcc510	0.030855685
43	0x3d2a58cc	0.04158859
44	0xbd6f0bd8	-0.058360904
45	0xbd9daefa	-0.0769939
46	0x3dff9c14	0.124809414
47	0x3c6da7a0	0.014505297
48	0xbc0c9820	-0.008581191
49	0x3c08f610	0.008359447
50	0xbd0c7cd4	-0.034298733
51	0xbda5d7d0	-0.080978036
52	0xbdfbd14a	-0.12295778
53	0xbd9f2bc6	-0.07772021
54	0xbada5e00	-0.0016660094
55	0x3d89f102	0.06735422
56	0x3d1524cc	0.036412045
57	0x3d7ec0a4	0.062195435
58	0x3d8d6924	0.069048196
59	0xbbc15aa0	-0.005900696
60	0x3d97d63a	0.07413907
61	0xbc273d40	-0.010207474
62	0xbc6d0c20	-0.014468223
63	0xbce6eb20	-0.028188288

h.0.mha.W_v.weight f4 [64, 64]
0	0x3deaf350	0.114721894
1	0x3d69c788	0.057075053
2	0x3df28e36	0.11843531
3	0xbdb67bac	-0.08910307
4	0x3db0e564	0.08637503
5	0x3cd1aaf8	0.02559422
6	0xbda7acb2	-0.08187236
7	0x3d8e3064	0.069428235
8	0xbdd61820	-0.1045382
9	0x3bcf0380	0.006317556
10	0xbde205ca	-0.110362604
11	0x3d6704fc	0.056401238
12	0xbdf1ff98	-0.11816329
13	0xbd3673c8	-0.04454401
14	0x3cc69c38	0.024244413
15	0xbcce1898	-0.025158212
16	0x3d92737e	0.07150935
17	0x3dfccdc8	0.12343937
18	0x3dd88e6c	0.1057404
19	0x3d4bb550	0.04973346
20	0x3d0ca210	0.034334242
21	0xbd990622	-0.07471873
22	0x3dbc73ea	0.09201796
23	0xbdeac722	-0.11463763
24	0xbc484770	-0.012224063
25	0x3c85fe18	0.016356513
26	0xbdf8c9b8	-0.1214785
27	0x3dbce036	0.09222452
28	0x3dba07e0	0.09083533
29	0xbd9d0d32	-0.076685324
30	0x3daf88d6	0.08571021
31	0xbdcacb74	-0.09902087
32	0xbd9e6d50	-0.077356935
33	0xbdbebfe4	-0.09313944
34	0x3db7addc	0.08968708
35	0x3d50ee48	0.051008493
36	0xbd85f61e	-0.06541084
37	0xbdf27ef8	-0.118406236
38	0x3d14b1b0	0.03630227
39	0x3deecb3e	0.11659859
40	0xbd16d02c	-0.036819622
41	0x3c7dc8f0	0.015489802
42	0xbd43d59c	-0.047811136
43	0xbdfd4cea	-0.12368186
44	0x3da3ad7a	0.079920724
45	0x3daed600	0.08536911
46	0x3def91c2	0.11697723
47	0x3da4f9d2	0.08055462
48	0x3ad75c80	0.0016430765
49	0xbd47a538	-0.04874155
50	0x3dcd2dfa	0.10018535
51	0xbd4677fc	-0.04845427
52	0xbddb63fa	-0.107124284
53	0xbd89aa60	-0.067219496
54	0xbb50e440	-0.003187433
55	0x3da9c008	0.0828858
56	0x3dc5b5da	0.09653826
57	0x3d1cf334	0.038317874
58	0xbd1f04ac	-0.038822815
59	0x3c624300	0.013809919
60	0x3d8fdfd6	0.07025115
61	0xbdec034e	-0.11524068
62	0xbc7bde80	-0.015372872
63	0xbde81802	-0.11332704
64	0xbc6def20	-0.014522344
65	0xbc9fe5d8	-0.019518778
66	0xbadb9700	-0.0016753376
67	0xbdcb4e78	-0.09927076
68	0x3da9c97e	0.08290385
69	0xbb88af40	-0.004171282
70	0x3c460c40	0.012087882
71	0xbd1f32c4	-0.038866773
72	0x3cb20b68	0.021733955
73	0x3cb70db8	0.022345409
74	0xbc918e30	-0.017767996
75	0x3d0fbf60	0.03509462
76	0xbcae7548	-0.021296158
77	0xbc5811c0	-0.013187826
78	0x3b7821c0	0.0037861913
79	0xbd9a4306	-0.07532315
80	0x3d8f089a	0.069840625
81	0xbcc69888	-0.024242654
82	0x3dc7d218	0.09756869
83	0x3b42a880	0.0029702485
84	0x3df0c538	0.117563665
85	0xbdc13ef0	-0.094358325
86	0x3dd1f17a	0.10251136
87	0xbd206bdc	-0.039165363
88	0x3ddb651c	0.107126445
89	0xbc8d9408	-0.0172825
90	0xbda4d0bc	-0.080476254
91	0xbdeadcb4	-0.11467877
92	0x3d061890	0.03273827
93	0xbd497278	-0.04918143
94	0x3de1962e	0.110149726
95	0x3d6b7bd8	0.057491153
96	0x3dcbe2b0	0.099553466
97	0x3dbaecce	0.09127198
98	0xbdd4bbf8	-0.10387415
99	0x3bf195c0	0.007372588
100	0xbced9220	-0.029000342
101	0x3d825fda	0.063659385
102	0x3dd55474	0.10416499
103	0x3dc00874	0.09376612
104	0xbd3821e8	-0.04495421
105	0x3dfdba96	0.12389104
106	0x3c0f2a80	0.00873816
107	0x3dfb999e	0.122851595
108	0x3dc59fac	0.096495956
109	0xbdad45e8	-0.08460599
110	0x3d4bb914	0.04973705
111	0xbd0280f4	-0.03186126
112	0x3cd5c1a0	0.026093304
113	0x3d7c7374	0.061633542
114	0xbdf5506e	-0.11978231
115	0xbd433cf0	-0.047665536
116	0xbcb774a8	-0.022394493
117	0x3d41d9a8	0.047326714
118	0x3dbaf9c8	0.09129673
119	0x3cd4a860	0.025959194
120	0x3da1c1fc	0.07898328
121	0xbd835478	-0.064125955
122	0x3d1ac71c	0.03778754
123	0xbd4264c8	-0.047459394
124	0xbdb98ac8	-0.090596735
125	0xbd009bc8	-0.031398565
126	0x3d302000	0.042999268
127	0x3d525f38	0.05136034
128	0x3d8d832e	0.06909786
129	0xbd583c8c	-0.052792117
130	0xbc784f30	-0.0151555985
131	0x3de87ada	0.11351557
132	0xbcf82998	-0.030293271
133	0x3d547390	0.05186802
134	0x3ae70d00	0.0017627776
135	0xbcf8e3a0	-0.030381978
136	0xbcf62288	-0.030045763
137	0x3d3c6e60	0.0460037
138	0x3d61555c	0.055013046
139	0x3b52bb80	0.0032155216
140	0x3d22eca0	0.039776444
141	0x3d9bbc12	0.07604231
142	0x3c846f48	0.016166344
143	0xbdcf7df4	-0.101314455
144	0x3dc0cba6	0.09413843
145	0x3d993aa6	0.074818894
146	0xbd83d200	-0.06436539
147	0x3d4bd9c4	0.049768224
148	0xbd3eff30	-0.046630085
149	0xbdb03494	-0.086037785
150	0x3d2ab188	0.041673213
151	0x3d3f4e2c	0.04670541
152	0xbd66bc7c	-0.056332096
153	0xbd46e818	-0.048561186
154	0xbd2e0370	-0.042483747
155	0xbd8d81a4	-0.069094926
156	0xbd3207d8	-0.04346451
157	0x3db46a80	0.08809376
158	0xbddc0fe4	-0.107452184
159	0xbd3539c4	-0.044244543
160	0xbd4ee328	-0.0505096
161	0xbd24284c	-0.040077493
162	0xbba83780	-0.0051335692
163	0xbb9d2aa0	-0.004796341
164	0x3d3a0c98	0.045422167
165	0xbc1c0d30	-0.0095246285
166	0x3dbbb454	0.09165254
167	0x3d8a94cc	0.06766662
168	0x3d00545c	0.03133045
169	0xbd752e04	-0.059858337
170	0xbd556470	-0.052097738
171	0xbdca2f94	-0.09872356
172	0xbd2b117c	-0.04176472
173	0x3d64953c	0.055806383
174	0x3ce5c2d0	0.028046995
175	0x3df3d414	0.11905685
176	0x3c0ea990	0.008707419
177	0xbdf2b080	-0.11850071
178	0xbd4f120c	-0.05055432
179	0x3dcb5d3c	0.099298924
180	0x3c860240	0.016358495
181	0x3ce05f50	0.027389199
182	0xbd78cbe8	-0.060741335
183	0xbdfd9330	-0.123815894
184	0xbdc5df68	-0.09661752
185	0x3dee6128	0.11639625
186	0x3dc21544	0.09476712
187	0x3db350e2	0.087556615
188	0x3ddd23a2	0.10797812
189	0x3da09f28	0.07842857
190	0x3df0bd82	0.11754896
191	0x3c8d90b0	0.017280906
192	0x3ce7b810	0.02828601
193	0x3d018b94	0.031627253
194	0x3d8f540e	0.06998454
195	0x3d997254	0.074925095
196	0xbd6331d0	-0.055467427
197	0xbdb22da0	-0.087001085
198	0xbd7e64e8	-0.06210795
199	0x3dcf7970	0.10130584
200	0x3dcb556c	0.09928402
201	0x3dfeca92	0.12440981
202	0x3d8bb66c	0.068219036
203	0x3c661830	0.014043853
204	0xbd1e1f50	-0.03860408
205	0xbd76bc44	-0.060238138
206	0x3db93a0e	0.09044276
207	0xb9365000	-0.00017386675
208	0x3d425ec0	0.047453642
209	0x3d34548c	0.044025943
210	0x3d2bef78	0.041976422
211	0x3d02e53c	0.031956896
212	0xbdf4e496	-0.11957662
213	0xbdf7eff0	-0.12106311
214	0x3d51cc88	0.051220447
215	0xbd66e158	-0.05636725
216	0x3d908f1c	0.07058546
217	0xbdb71292	-0.08939089
218	0xbdb681c8	-0.089114726
219	0xbd16637c	-0.03671597
220	0xbde4df68	-0.11175424
221	0x3d1315d0	0.035909474
222	0x3dd8c2c8	0.105840266
223	0xbde6321c	-0.11240026
224	0xbdfe3534	-0.124124914
225	0xbda4b45c	-0.08042213
226	0x3d7acbb0	0.061229408
227	0x3cf81650	0.030284077
228	0x3d4cdfcc	0.050018117
229	0xbdf795dc	-0.1208913
230	0xbd950c3c	-0.07277724
231	0x3de20d5e	0.11037706
232	0xbc2ed1a0	-0.010670096
233	0x3cb0c008	0.021575943
234	0x3de70890	0.1128093
235	0xbddbda14	-0.107349545
236	0x3d6fac34	0.058513835
237	0xbd4d7088	-0.050156146
238	0xbd2090d8	-0.039200634
239	0xbdc1ec94	-0.09468952
240	0xbdfdd478	-0.12394041
241	0xbd00309c	-0.031296358
242	0xbcfd2598	-0.030901715
243	0xbdcb7a04	-0.09935382
244	0xbdffc940	-0.12489557
245	0x3d357a64	0.044306174
246	0x3d101da8	0.035184532
247	0xbdb46d28	-0.088098824
248	0xbcf7d250	-0.030251652
249	0xbd06a4d8	-0.03287205
250	0xbdb5777a	-0.08860679
251	0x3d9656c0	0.07340765
252	0x3d1dd6a0	0.03853476
253	0xbd0cf120	-0.034409642
254	0xbda6d40e	-0.08145915
255	0x3c345290	0.011006013

h.0.mha.W_v.bias f4 [64]
0	0xbd90c30c	-0.07068452
1	0x3cf36340	0.029710412
2	0x3c9a4680	0.018832445
3	0x3d544590	0.051824152
4	0xbdcab564	-0.09897879
5	0xbdb9de62	-0.09075619
6	0x3d1c5884	0.038170353
7	0xbdcabba0	-0.09899068
8	0xbda3bb36	-0.07994692
9	0xbd08ed68	-0.033429533
10	0xbcadd458	-0.021219417
11	0xbdff572c	-0.124677986
12	0x3db92b20	0.090414286
13	0x3dd11fac	0.10211119
14	0xbdb5d424	-0.08878353
15	0xbd002f70	-0.03129524
16	0x3c1e1eb0	0.009650871
17	0xbd9af378	-0.07565969
18	0xbd66e428	-0.05636993
19	0x3cdfea00	0.02733326
20	0xbc997690	-0.018733293
21	0xbd0c0e5c	-0.03419338
22	0x3cceef58	0.025260612
23	0xbc983030	-0.018577665
24	0x3c8f54e8	0.017496541
25	0x3df47b7a	0.11937614
26	0x3dd8efbc	0.10592601
27	0x3c91a800	0.017780304
28	0x3d09d37c	0.033648953
29	0x3dcaf5f8	0.09910196
30	0x3cc43810	0.023952514
31	0x3de87fea	0.11352523
32	0xbdfb6574	-0.1227521
33	0x3d80c08e	0.06286727
34	0x3da728be	0.08162068
35	0x3d834226	0.06409101
36	0x3d759bec	0.05996315
37	0x3dcc162a	0.09965165
38	0x3cc8df88	0.02452065
39	0xbd4a066c	-0.04932253
40	0xbdec0688	-0.11524683
41	0xbc029040	-0.007968962
42	0x3d2b46a8	0.04181543
43	0xbd496ec0	-0.049177885
44	0xbde00340	-0.1093812
45	0x3c285fa0	0.010276705
46	0xbda1728c	-0.07883176
47	0xbd82c38a	-0.06384952
48	0xbdf4123e	-0.11917542
49	0x3d9e9772	0.0774373
50	0xbde8de0e	-0.113704786
51	0xbc96cb50	-0.018407494
52	0xbdfad960	-0.12248492
53	0xbdd4f2d4	-0.10397878
54	0x3d6b8304	0.057497993
55	0x3d8b4a8e	0.068013296
56	0xbd91d9b2	-0.071216
57	0xbcb94c88	-0.0226195
58	0xbdd5c42c	-0.104378074
59	0x3d99089a	0.07472344
60	0x3de9496a	0.11390956
61	0xbdfdff46	-0.12402205
62	0xbca06840	-0.01958096
63	0xbce0ae20	-0.02742678

h.0.mha.W_o.weight f4 [64, 64]
0	0xbdf37198	-0.11886901
1	0xbde29698	-0.1106388
2	0x3dd637c0	0.10459852
3	0xbd27fc0c	-0.041011855
4	0x3d137278	0.035997838
5	0xbde53e3a	-0.111935094
6	0x3c9ef4b8	0.0194038
7	0xbd61e310	-0.055148184
8	0x3d6b4168	0.057435423
9	0xbc40a5f0	-0.011758313
10	0xbda42058	-0.080139816
11	0xbbd8d7e0	-0.006617531
12	0xbd44085c	-0.047859535
13	0x3c59d740	0.0132959485
14	0xbd377dcc	-0.044797704
15	0xbd3b5014	-0.045730665
16	0x3d7a715c	0.061143264
17	0xbdbf7128	-0.09347755
18	0xbdef2c04	-0.11678317
19	0xbc8273a0	-0.015924275
20	0xbdef1990	-0.116747975
21	0xbd871e14	-0.06597534
22	0x3ded8c20	0.11598992
23	0xbdf4a9f4	-0.119464785
24	0xbcf005f0	-0.029299706
25	0x3d30c7b4	0.0431592
26	0x3d4dc794	0.05023916
27	0xbd0e3b60	-0.034724593
28	0xbd9fcdd6	-0.07802932
29	0x3cee8800	0.029117584
30	0xbda1954c	-0.07889804
31	0xbd7de494	-0.061985567
32	0xbdf1fc40	-0.11815691
33	0x3bc094e0	0.0058771223
34	0xbde5d97c	-0.112231225
35	0x3c91aac0	0.017781615
36	0xbcd3c068	-0.025848582
37	0x3dfdaccc	0.12386474
38	0xbb8d51c0	-0.004312724
39	0x3dec9974	0.11552706
40	0x3deb659a	0.11493988
41	0x3caae7d8	0.020862505
42	0x3d37e8b4	0.044899657
43	0xbc4a7480	-0.012356877
44	0xbdaa0b76	-0.08302967
45	0xbdd88458	-0.105721176
46	0x3cfb71c0	0.030693889
47	0xbdf511de	-0.119662985
48	0x3df4145c	0.11917946
49	0xbcb00930	-0.021488756
50	0x3d778970	0.060433805
51	0xbd5b6b34	-0.053569034
52	0xbd84b196	-0.06479184
53	0x3d554330	0.052066028
54	0xbdc44dcc	-0.09585151
55	0x3d75acd8	0.05997929
56	0xbd08bc90	-0.033382952
57	0x3d9f35fc	0.077739686
58	0x3cc60948	0.024174348
59	0x3ade2600	0.0016948581
60	0xbdef65b8	-0.11689323
61	0xbcef8768	-0.029239371
62	0x3d9a08c2	0.07521202
63	0x3dfd3e82	0.12365438
64	0x3dde7014	0.10861221
65	0x3ceed718	0.029155299
66	0x3d4cb538	0.04997751
67	0x3d8965fa	0.067089036
68	0x3db2e190	0.08734429
69	0xbdcd8570	-0.10035217
70	0x3cf837f8	0.030300125
71	0xbd95dea8	-0.07317859
72	0x3d7de8e0	0.061989665
73	0x3c386d00	0.011256456
74	0x3de70d2a	0.11281808
75	0xbde4feba	-0.11181398
76	0x3dbc3886	0.091904685
77	0xbd82a724	-0.06379536
78	0x3c3f0540	0.011658967
79	0x3df309ee	0.11867128
80	0xbd126ee0	-0.03575027
81	0x3cba3f70	0.022735327
82	0x3dd56c02	0.104209915
83	0xbbafb0c0	-0.0053616464
84	0x3ceb8758	0.02875106
85	0xbdc7e85e	-0.097611174
86	0x3bb87720	0.005629435
87	0x3dbd5670	0.09245002
88	0x3d5bcad0	0.053660214
89	0xbd545028	-0.051834255
90	0x3ce54b48	0.027989998
91	0xbb628c80	-0.0034568608
92	0xbd8dcf62	-0.06924321
93	0xbc00de20	-0.007865459
94	0x3d994e0a	0.07485588
95	0xbdce049c	-0.10059473
96	0x3d4c9a04	0.04995157
97	0xbdc9f98e	-0.09862052
98	0x3d503944	0.050835863
99	0x3dc662f4	0.096868426
100	0x3d0063f4	0.031345323
101	0x3d751238	0.059831828
102	0xbdb74ae4	-0.08949831
103	0x3ddba662	0.107250944
104	0x3c4467f0	0.011987671
105	0x3dc40c7a	0.09572692
106	0x3d2cf190	0.04222256
107	0x3db50258	0.08838338
108	0xbde8ab74	-0.11360827
109	0xbd4372e4	-0.04771699
110	0x3de59ba2	0.11211325
111	0x3bca5320	0.00617446
112	0x3dd3bade	0.103383765
113	0x3cf3eeb8	0.029776916
114	0xbd94b1f4	-0.07260504
115	0xbd3873b4	-0.045032218
116	0xbd78076c	-0.060553953
117	0x3df52468	0.119698346
118	0xbd5539b0	-0.05205697
119	0xbb576dc0	-0.0032871813
120	0x3c629820	0.013830215
121	0x3ca268e0	0.019825399
122	0xbdbf5276	-0.093419
123	0xbd12ae60	-0.03581083
124	0xbd8505ae	-0.06495224
125	0xbd96e0d6	-0.07367103
126	0x3c8af428	0.016962126
127	0x3cb99190	0.022652417
128	0x3db8f5d0	0.0903126
129	0x3df35f64	0.11883429
130	0xbc279ea0	-0.01023069
131	0x3da84b9a	0.08217545
132	0xbcae1cd0	-0.021253973
133	0x3cf647f8	0.030063614
134	0x3c814b70	0.015783042
135	0xbd9e7418	-0.07736987
136	0xbded00f6	-0.11572449
137	0x3aa0de80	0.0012273341
138	0xbc04ac20	-0.008097678
139	0xbbe51ac0	-0.0069917142
140	0x3d388444	0.045048013
141	0x3dd112dc	0.10208675
142	0x3dcfec60	0.10152507
143	0xbd5d3ab8	-0.054011077
144	0x3d8fde06	0.070247695
145	0xbc2f4e00	-0.010699749
146	0x3d2ad384	0.041705623
147	0x3d8a5f72	0.06756486
148	0xbdf8fbb2	-0.12157382
149	0xbd4f26e4	-0.0505742
150	0xbdd3230a	-0.103094175
151	0x3df225b0	0.118235946
152	0x3d92876a	0.071547344
153	0xbb1b6a80	-0.0023714602
154	0xbd973004	-0.07382205
155	0x3a00e800	0.0004917383
156	0x3d2119e4	0.03933133
157	0xbd14efac	-0.03636138
158	0xbd6367c0	-0.055518866
159	0x3d51558c	0.051106974
160	0xbdace34a	-0.084417894
161	0x3de9b234	0.11410943
162	0x3d14e2c0	0.03634906
163	0x3d0e776c	0.03478186
164	0x3df2ec9a	0.118615344
165	0xbc6334a0	-0.013867527
166	0x3ddfe1c0	0.1093173
167	0xbdb23166	-0.08700828
168	0xbcccfb98	-0.025022313
169	0xbcd1b288	-0.025597826
170	0x3d08c470	0.033390462
171	0x3dfc4be6	0.12319164
172	0x3db1e4f6	0.08686249
173	0xbcb11950	-0.021618515
174	0xbdb42ab0	-0.087972045
175	0x3dc3bc58	0.09557408
176	0x3be0dba0	0.006862119
177	0xbd59b844	-0.053154245
178	0x3d84811a	0.06469937
179	0xbc8aef40	-0.016959786
180	0x3d256984	0.04038383
181	0xbda2e838	-0.079544485
182	0xbc616470	-0.013756856
183	0xbc0b0190	-0.008484259
184	0xbd2d3a0c	-0.042291686
185	0xbd4db074	-0.050217107
186	0x3d775248	0.060381204
187	0x3d694ccc	0.056958005
188	0x3cb984a8	0.022646263
189	0x3d6273fc	0.055286393
190	0xbdd7f840	-0.10545397
191	0x3d6eddb0	0.058316886
192	0x3baadb00	0.005214095
193	0xbd35ab68	-0.04435292
194	0xbd0255c8	-0.03182009
195	0x3ddc375c	0.107527465
196	0xbd5dfc68	-0.05419579
197	0xbdb94626	-0.09046583
198	0x3df50b96	0.119651005
199	0x3da23c00	0.079216
200	0x3ca6f950	0.020382553
201	0x3d102e34	0.035200313
202	0x3d8054d6	0.06266181
203	0x3daa545e	0.08316873
204	0xbde12e60	-0.109951735
205	0xbd787a68	-0.06066361
206	0xbd6d441c	-0.057926282
207	0x3d7a1968	0.061059386
208	0xbd374484	-0.044743076
209	0xbb965540	-0.0045877993
210	0x3dd1db9c	0.10246965
211	0xbdbcbf32	-0.09216155
212	0xbdfc7304	-0.12326625
213	0x3ddab548	0.10679108
214	0x3d67fd14	0.05663784
215	0x3d11150c	0.035420462
216	0xbde9879a	-0.11402817
217	0x3d7629f4	0.060098603
218	0x3de64ea8	0.11245471
219	0x3d2d2c18	0.04227838
220	0xbde13ed6	-0.10998313
221	0xbdeb119c	-0.11477968
222	0x3d712da8	0.05888143
223	0xbc07cfc0	-0.008289278
224	0xbde670a8	-0.11251956
225	0x3c99ab68	0.01875849
226	0xbcdd9910	-0.027050525
227	0x3d16b8fc	0.03679751
228	0x3df296a4	0.11845139
229	0x3d912dc4	0.07088807
230	0xbd939ab2	-0.0720724
231	0x3dc67848	0.096909106
232	0xbdb99834	-0.090622336
233	0x3d2e1df0	0.04250902
234	0x3dd21cea	0.10259421
235	0x3da94ef2	0.08267011
236	0xbc1f25b0	-0.009713575
237	0x3d932412	0.07184614
238	0x3dc0b70e	0.09409915
239	0x3cd46d28	0.025930956
240	0xbddfd5fc	-0.10929486
241	0x3ca43ee0	0.020049512
242	0xbd8cf022	-0.06881739
243	0xbd88dc9e	-0.066827044
244	0xbc9e1080	-0.019294977
245	0x3b5cd980	0.0033698976
246	0x3c556ec0	0.013026893
247	0xbd66d02c	-0.056350872
248	0x3cf8fd28	0.030394152
249	0x3d8be7b6	0.06831305
250	0xbdec77aa	-0.115462616
251	0x3bb75060	0.0055942982
252	0x3d35ea8c	0.044413134
253	0xbdadf8da	-0.0849473
254	0xbd9b00c0	-0.075685024
255	0x3c2f6fb0	0.010707781

h.0.mha.W_o.bias f4 [64]
0	0xbdd14982	-0.10219099
1	0x3cdd3bc0	0.02700603
2	0x3ded0ae2	0.11574341
3	0xbda46b00	-0.08028221
4	0x3dd24580	0.10267162
5	0xbdf3b910	-0.11900532
6	0xbd20c2a8	-0.03924814
7	0x3dc99f3e	0.09844826
8	0xbb4a4640	-0.0030864626
9	0x3dcfde1a	0.101497844
10	0xbd2d96f8	-0.042380303
11	0x3d46eb6c	0.04856436
12	0xbcd07e48	-0.02545084
13	0x3db200fe	0.086915955
14	0x3c6a8e20	0.014316112
15	0x3dd5dad6	0.1044213
16	0x3d58307c	0.052780613
17	0x3a884180	0.0010395497
18	0x3d89a534	0.06720963
19	0xbcf8c3b8	-0.030366763
20	0xbda172d0	-0.07883227
21	0x3d2762f0	0.04086584
22	0xbd381d70	-0.04494995
23	0x3dbee09e	0.09320186
24	0xbd24552c	-0.04012029
25	0x3d599620	0.053121686
26	0x3db79afa	0.08965106
27	0xbd1d2fbc	-0.0383756
28	0xbc3a38d0	-0.011366084
29	0x3d8fa736	0.07014315
30	0xbcac24f8	-0.021013722
31	0x3ddd4b22	0.10805346
32	0x3dbb7fdc	0.091552466
33	0xbdb49f9a	-0.08819504
34	0xbd8e86cc	-0.06959304
35	0x3d86d306	0.06583218
36	0x3c889778	0.016673788
37	0xbdde3c70	-0.10851371
38	0xbdd521b2	-0.104068175
39	0x3d8650e8	0.065584004
40	0xbd3b5234	-0.045732692
41	0x3c3df300	0.01159358
42	0xbde9aa72	-0.11409463
43	0xbdeaec08	-0.11470801
44	0xbd963078	-0.073334634
45	0x3cc79c00	0.024366379
46	0x3bebac00	0.007192135
47	0xbb3cbac0	-0.0028797835
48	0xbd93bff2	-0.07214345
49	0x3d4d8a30	0.050180614
50	0x3db5c62c	0.08875689
51	0xbd0f78c8	-0.035027295
52	0xbdc69038	-0.09695476
53	0x3d9cc434	0.0765461
54	0x3d41df40	0.04733205
55	0xbdd6d972	-0.10490693
56	0x3d6fc788	0.058539897
57	0x3c5904a0	0.013245732
58	0x3df8c98c	0.12147817
59	0x3d65f448	0.056141168
60	0xbdc9ce3a	-0.09853788
61	0x3b3d83c0	0.002891764
62	0x3dfff63a	0.12498136
63	0x3c25e360	0.010125011

h.0.ln_1.weight f4 [64]
0	0x3f800000	1.0
1	0x3f800000	1.0
2	0x3f800000	1.0
3	0x3f800000	1.0
4	0x3f800000	1.0
5	0x3f800000	1.0
6	0x3f800000	1.0
7	0x3f800000	1.0
8	0x3f800000	1.0
9	0x3f800000	1.0
10	0x3f800000	1.0
11	0x3f800000	1.0
12	0x3f800000	1.0
13	0x3f800000	1.0
14	0x3f800000	1.0
15	0x3f800000	1.0
16	0x3f800000	1.0
17	0x3f800000	1.0
18	0x3f800000	1.0
19	0x3f800000	1.0
20	0x3f800000	1.0
21	0x3f800000	1.0
22	0x3f800000	1.0
23	0x3f800000	1.0
24	0x3f800000	1.0
25	0x3f800000	1.0
26	0x3f800000	1.0
27	0x3f800000	1.0
28	0x3f800000	1.0
29	0x3f800000	1.0
30	0x3f800000	1.0
31	0x3f800000	1.0
32	0x3f800000	1.0
33	0x3f800000	1.0
34	0x3f800000	1.0
35	0x3f800000	1.0
36	0x3f800000	1.0
37	0x3f800000	1.0
38	0x3f800000	1.0
39	0x3f800000	1.0
40	0x3f800000	1.0
41	0x3f800000	1.0
42	0x3f800000	1.0
43	0x3f800000	1.0
44	0x3f800000	1.0
45	0x3f800000	1.0
46	0x3f800000	1.0
47	0x3f800000	1.0
48	0x3f800000	1.0
49	0x3f800000	1.0
50	0x3f800000	1.0
51	0x3f800000	1.0
52	0x3f800000	1.0
53	0x3f800000	1.0
54	0x3f800000	1.0
55	0x3f800000	1.0
56	0x3f800000	1.0
57	0x3f800000	1.0
58	0x3f800000	1.0
59	0x3f800000	1.0
60	0x3f800000	1.0
61	0x3f800000	1.0
62	0x3f800000	1.0
63	0x3f800000	1.0

h.0.ln_1.bias f4 [64]
0	0x00000000	0.0
1	0x00000000	0.0
2	0x00000000	0.0
3	0x00000000	0.0
4	0x00000000	0.0
5	0x00000000	0.0
6	0x00000000	0.0
7	0x00000000	0.0
8	0x00000000	0.0
9	0x00000000	0.0
10	0x00000000	0.0
11	0x00000000	0.0
12	0x00000000	0.0
13	0x00000000	0.0
14	0x00000000	0.0
15	0x00000000	0.0
16	0x00000000	0.0
17	0x00000000	0.0
18	0x00000000	0.0
19	0x00000000	0.0
20	0x00000000	0.0
21	0x00000000	0.0
22	0x00000000	0.0
23	0x00000000	0.0
24	0x00000000	0.0
25	0x00000000	0.0
26	0x00000000	0.0
27	0x00000000	0.0
28	0x00000000	0.0
29	0x00000000	0.0
30	0x00000000	0.0
31	0x00000000	0.0
32	0x00000000	0.0
33	0x00000000	0.0
34	0x00000000	0.0
35	0x00000000	0.0
36	0x00000000	0.0
37	0x00000000	0.0
38	0x00000000	0.0
39	0x00000000	0.0
40	0x00000000	0.0
41	0x00000000	0.0
42	0x00000000	0.0
43	0x00000000	0.0
44	0x00000000	0.0
45	0x00000000	0.0
46	0x00000000	0.0
47	0x00000000	0.0
48	0x00000000	0.0
49	0x00000000	0.0
50	0x00000000	0.0
51	0x00000000	0.0
52	0x00000000	0.0
53	0x00000000	0.0
54	0x00000000	0.0
55	0x00000000	0.0
56	0x00000000	0.0
57	0x00000000	0.0
58	0x00000000	0.0
59	0x00000000	0.0
60	0x00000000	0.0
61	0x00000000	0.0
62	0x00000000	0.0
63	0x00000000	0.0

h.0.ln_2.weight f4 [64]
0	0x3f800000	1.0
1	0x3f800000	1.0
2	0x3f800000	1.0
3	0x3f800000	1.0
4	0x3f800000	1.0
5	0x3f800000	1.0
6	0x3f800000	1.0
7	0x3f800000	1.0
8	0x3f800000	1.0
9	0x3f800000	1.0
10	0x3f800000	1.0
11	0x3f800000	1.0
12	0x3f800000	1.0
13	0x3f800000	1.0
14	0x3f800000	1.0
15	0x3f800000	1.0
16	0x3f800000	1.0
17	0x3f800000	1.0
18	0x3f800000	1.0
19	0x3f800000	1.0
20	0x3f800000	1.0
21	0x3f800000	1.0
22	0x3f800000	1.0
23	0x3f800000	1.0
24	0x3f800000	1.0
25	0x3f800000	1.0
26	0x3f800000	1.0
27	0x3f800000	1.0
28	0x3f800000	1.0
29	0x3f800000	1.0
30	0x3f800000	1.0
31	0x3f800000	1.0
32	0x3f800000	1.0
33	0x3f800000	1.0
34	0x3f800000	1.0
35	0x3f800000	1.0
36	0x3f800000	1.0
37	0x3f800000	1.0
38	0x3f800000	1.0
39	0x3f800000	1.0
40	0x3f800000	1.0
41	0x3f800000	1.0
42	0x3f800000	1.0
43	0x3f800000	1.0
44	0x3f800000	1.0
45	0x3f800000	1.0
46	0x3f800000	1.0
47	0x3f800000	1.0
48	0x3f800000	1.0
49	0x3f800000	1.0
50	0x3f800000	1.0
51	0x3f800000	1.0
52	0x3f800000	1.0
53	0x3f800000	1.0
54	0x3f800000	1.0
55	0x3f800000	1.0
56	0x3f800000	1.0
57	0x3f800000	1.0
58	0x3f800000	1.0
59	0x3f800000	1.0
60	0x3f800000	1.0
61	0x3f800000	1.0
62	0x3f800000	1.0
63	0x3f800000	1.0

h.0.ln_2.bias f4 [64]
0	0x00000000	0.0
1	0x00000000	0.0
2	0x00000000	0.0
3	0x00000000	0.0
4	0x00000000	0.0
5	0x00000000	0.0
6	0x00000000	0.0
7	0x00000000	0.0
8	0x00000000	0.0
9	0x00000000	0.0
10	0x00000000	0.0
11	0x00000000	0.0
12	0x00000000	0.0
13	0x00000000	0.0
14	0x00000000	0.0
15	0x00000000	0.0
16	0x00000000	0.0
17	0x00000000	0.0
18	0x00000000	0.0
19	0x00000000	0.0
20	0x00000000	0.0
21	0x00000000	0.0
22	0x00000000	0.0
23	0x00000000	0.0
24	0x00000000	0.0
25	0x00000000	0.0
26	0x00000000	0.0
27	0x00000000	0.0
28	0x00000000	0.0
29	0x00000000	0.0
30	0x00000000	0.0
31	0x00000000	0.0
32	0x00000000	0.0
33	0x00000000	0.0
34	0x00000000	0.0
35	0x00000000	0.0
36	0x00000000	0.0
37	0x00000000	0.0
38	0x00000000	0.0
39	0x00000000	0.0
40	0x00000000	0.0
41	0x00000000	0.0
42	0x00000000	0.0
43	0x00000000	0.0
44	0x00000000	0.0
45	0x00000000	0.0
46	0x00000000	0.0
47	0x00000000	0.0
48	0x00000000	0.0
49	0x00000000	0.0
50	0x00000000	0.0
51	0x00000000	0.0
52	0x00000000	0.0
53	0x00000000	0.0
54	0x00000000	0.0
55	0x00000000	0.0
56	0x00000000	0.0
57	0x00000000	0.0
58	0x00000000	0.0
59	0x00000000	0.0
60	0x00000000	0.0
61	0x00000000	0.0
62	0x00000000	0.0
63	0x00000000	0.0
